Model: "functional_1"
__________________________________________________________________________________________________
Layer (type)                    Output Shape         Param #     Connected to                     
==================================================================================================
input_1 (InputLayer)            [(None, 224, 224, 3) 0                                            
__________________________________________________________________________________________________
conv2d (Conv2D)                 (None, 112, 112, 16) 2352        input_1[0][0]                    
__________________________________________________________________________________________________
batch_normalization (BatchNorma (None, 112, 112, 16) 64          conv2d[0][0]                     
__________________________________________________________________________________________________
max_pooling2d (MaxPooling2D)    (None, 37, 37, 16)   0           batch_normalization[0][0]        
__________________________________________________________________________________________________
conv2d_1 (Conv2D)               (None, 19, 19, 16)   2304        max_pooling2d[0][0]              
__________________________________________________________________________________________________
batch_normalization_1 (BatchNor (None, 19, 19, 16)   64          conv2d_1[0][0]                   
__________________________________________________________________________________________________
conv2d_2 (Conv2D)               (None, 19, 19, 16)   2304        batch_normalization_1[0][0]      
__________________________________________________________________________________________________
batch_normalization_2 (BatchNor (None, 19, 19, 16)   64          conv2d_2[0][0]                   
__________________________________________________________________________________________________
add (Add)                       (None, 19, 19, 16)   0           batch_normalization_1[0][0]      
                                                                 batch_normalization_2[0][0]      
__________________________________________________________________________________________________
conv2d_3 (Conv2D)               (None, 19, 19, 16)   2304        add[0][0]                        
__________________________________________________________________________________________________
batch_normalization_3 (BatchNor (None, 19, 19, 16)   64          conv2d_3[0][0]                   
__________________________________________________________________________________________________
add_1 (Add)                     (None, 19, 19, 16)   0           add[0][0]                        
                                                                 batch_normalization_3[0][0]      
__________________________________________________________________________________________________
conv2d_4 (Conv2D)               (None, 10, 10, 32)   4608        add_1[0][0]                      
__________________________________________________________________________________________________
batch_normalization_4 (BatchNor (None, 10, 10, 32)   128         conv2d_4[0][0]                   
__________________________________________________________________________________________________
conv2d_5 (Conv2D)               (None, 10, 10, 32)   9216        batch_normalization_4[0][0]      
__________________________________________________________________________________________________
batch_normalization_5 (BatchNor (None, 10, 10, 32)   128         conv2d_5[0][0]                   
__________________________________________________________________________________________________
add_2 (Add)                     (None, 10, 10, 32)   0           batch_normalization_4[0][0]      
                                                                 batch_normalization_5[0][0]      
__________________________________________________________________________________________________
conv2d_6 (Conv2D)               (None, 10, 10, 32)   9216        add_2[0][0]                      
__________________________________________________________________________________________________
batch_normalization_6 (BatchNor (None, 10, 10, 32)   128         conv2d_6[0][0]                   
__________________________________________________________________________________________________
add_3 (Add)                     (None, 10, 10, 32)   0           add_2[0][0]                      
                                                                 batch_normalization_6[0][0]      
__________________________________________________________________________________________________
conv2d_7 (Conv2D)               (None, 5, 5, 64)     18432       add_3[0][0]                      
__________________________________________________________________________________________________
batch_normalization_7 (BatchNor (None, 5, 5, 64)     256         conv2d_7[0][0]                   
__________________________________________________________________________________________________
conv2d_8 (Conv2D)               (None, 5, 5, 64)     36864       batch_normalization_7[0][0]      
__________________________________________________________________________________________________
batch_normalization_8 (BatchNor (None, 5, 5, 64)     256         conv2d_8[0][0]                   
__________________________________________________________________________________________________
add_4 (Add)                     (None, 5, 5, 64)     0           batch_normalization_7[0][0]      
                                                                 batch_normalization_8[0][0]      
__________________________________________________________________________________________________
conv2d_9 (Conv2D)               (None, 5, 5, 64)     36864       add_4[0][0]                      
__________________________________________________________________________________________________
batch_normalization_9 (BatchNor (None, 5, 5, 64)     256         conv2d_9[0][0]                   
__________________________________________________________________________________________________
add_5 (Add)                     (None, 5, 5, 64)     0           add_4[0][0]                      
                                                                 batch_normalization_9[0][0]      
__________________________________________________________________________________________________
conv2d_10 (Conv2D)              (None, 3, 3, 128)    73728       add_5[0][0]                      
__________________________________________________________________________________________________
batch_normalization_10 (BatchNo (None, 3, 3, 128)    512         conv2d_10[0][0]                  
__________________________________________________________________________________________________
conv2d_11 (Conv2D)              (None, 3, 3, 128)    147456      batch_normalization_10[0][0]     
__________________________________________________________________________________________________
batch_normalization_11 (BatchNo (None, 3, 3, 128)    512         conv2d_11[0][0]                  
__________________________________________________________________________________________________
add_6 (Add)                     (None, 3, 3, 128)    0           batch_normalization_10[0][0]     
                                                                 batch_normalization_11[0][0]     
__________________________________________________________________________________________________
conv2d_12 (Conv2D)              (None, 3, 3, 128)    147456      add_6[0][0]                      
__________________________________________________________________________________________________
batch_normalization_12 (BatchNo (None, 3, 3, 128)    512         conv2d_12[0][0]                  
__________________________________________________________________________________________________
add_7 (Add)                     (None, 3, 3, 128)    0           add_6[0][0]                      
                                                                 batch_normalization_12[0][0]     
__________________________________________________________________________________________________
conv2d_13 (Conv2D)              (None, 2, 2, 512)    589824      add_7[0][0]                      
__________________________________________________________________________________________________
batch_normalization_13 (BatchNo (None, 2, 2, 512)    2048        conv2d_13[0][0]                  
__________________________________________________________________________________________________
conv2d_14 (Conv2D)              (None, 2, 2, 512)    2359296     batch_normalization_13[0][0]     
__________________________________________________________________________________________________
batch_normalization_14 (BatchNo (None, 2, 2, 512)    2048        conv2d_14[0][0]                  
__________________________________________________________________________________________________
add_8 (Add)                     (None, 2, 2, 512)    0           batch_normalization_13[0][0]     
                                                                 batch_normalization_14[0][0]     
__________________________________________________________________________________________________
conv2d_15 (Conv2D)              (None, 2, 2, 512)    2359296     add_8[0][0]                      
__________________________________________________________________________________________________
batch_normalization_15 (BatchNo (None, 2, 2, 512)    2048        conv2d_15[0][0]                  
__________________________________________________________________________________________________
add_9 (Add)                     (None, 2, 2, 512)    0           add_8[0][0]                      
                                                                 batch_normalization_15[0][0]     
__________________________________________________________________________________________________
global_average_pooling2d (Globa (None, 512)          0           add_9[0][0]                      
__________________________________________________________________________________________________
flatten (Flatten)               (None, 512)          0           global_average_pooling2d[0][0]   
__________________________________________________________________________________________________
dropout (Dropout)               (None, 512)          0           flatten[0][0]                    
__________________________________________________________________________________________________
dense (Dense)                   (None, 32)           16384       dropout[0][0]                    
__________________________________________________________________________________________________
lambda (Lambda)                 (None, 32)           0           dense[0][0]                      
==================================================================================================
Total params: 5,826,992
Trainable params: 5,822,448
Non-trainable params: 4,544
__________________________________________________________________________________________________
None
WARNING:tensorflow:From /home/zhao/DogFaceNet/dogfacenet/online_training.py:328: Model.predict_generator (from tensorflow.python.keras.engine.training) is deprecated and will be removed in a future version.
…
